…
ading https://ultralytics.com/assets/Arial.ttf to /root/.config/Ultralytics/Arial.ttf...\n"]},{"output_type":"display_data","data":{"text/plain":["  0%|          | 0.00/755k [00:00<?, ?B/s]"],"application/vnd.jupyter.widget-view+json":{"version_major":2,"version_minor":0,"model_id":"12d5bf5ad01a4084a6cfe48637a2f0d1"}},"metadata":{}},{"output_type":"stream","name":"stderr","text":["Overriding model.yaml nc=80 with nc=26\n","\n","                   from  n    params  module                                       arguments                     \n","  0                  -1  1       464  ultralytics.nn.modules.Conv                  [3, 16, 3, 2]                 \n","  1                  -1  1      4672  ultralytics.nn.modules.Conv                  [16, 32, 3, 2]                \n","  2                  -1  1      7360  ultralytics.nn.modules.C2f                   [32, 32, 1, True]             \n","  3                  -1  1     18560  ultralytics.nn.modules.Conv                  [32, 64, 3, 2]                \n","  4                  -1  2     49664  ultralytics.nn.modules.C2f                   [64, 64, 2, True]             \n","  5                  -1  1     73984  ultralytics.nn.modules.Conv                  [64, 128, 3, 2]               \n","  6                  -1  2    197632  ultralytics.nn.modules.C2f                   [128, 128, 2, True]           \n","  7                  -1  1    295424  ultralytics.nn.modules.Conv                  [128, 256, 3, 2]              \n","  8                  -1  1    460288  ultralytics.nn.modules.C2f                   [256, 256, 1, True]           \n","  9                  -1  1    164608  ultralytics.nn.modules.SPPF                  [256, 256, 5]                 \n"," 10                  -1  1         0  torch.nn.modules.upsampling.Upsample         [None, 2, 'nearest']          \n"," 11             [-1, 6]  1         0  ultralytics.nn.modules.Concat                [1]                           \n"," 12                  -1  1    148224  ultralytics.nn.modules.C2f                   [384, 128, 1]                 \n"," 13                  -1  1         0  torch.nn.modules.upsampling.Upsample         [None, 2, 'nearest']          \n"," 14             [-1, 4]  1         0  ultralytics.nn.modules.Concat                [1]                           \n"," 15                  -1  1     37248  ultralytics.nn.modules.C2f                   [192, 64, 1]                  \n"," 16                  -1  1     36992  ultralytics.nn.modules.Conv                  [64, 64, 3, 2]                \n"," 17            [-1, 12]  1         0  ultralytics.nn.modules.Concat                [1]                           \n"," 18                  -1  1    123648  ultralytics.nn.modules.C2f                   [192, 128, 1]                 \n"," 19                  -1  1    147712  ultralytics.nn.modules.Conv                  [128, 128, 3, 2]              \n"," 20             [-1, 9]  1         0  ultralytics.nn.modules.Concat                [1]                           \n"," 21                  -1  1    493056  ultralytics.nn.modules.C2f                   [384, 256, 1]                 \n"," 22        [15, 18, 21]  1    756382  ultralytics.nn.modules.Detect                [26, [64, 128, 256]]          \n","Model summary: 225 layers, 3015918 parameters, 3015902 gradients, 8.2 GFLOPs\n","\n","Transferred 58/355 items from pretrained weights\n","WARNING âš ï¸ ClearML installed but not initialized correctly, not logging this run. It seems ClearML is not configured on this machine!\n","To get started with ClearML, setup your own 'clearml-server' or create a free account 
…
